SavedModel/LCRNN_DATA.pt (torch_old, 5311 bytes, 15 tensors)

conv1Layer.0.weight f4 [1, 1, 1, 8]
0	0x40549bb5	3.3220036
1	0x3cff0b62	0.031133357
2	0x3cc18465	0.023622701
3	0x3c960ad4	0.01831571
4	0x3c869286	0.01642729
5	0x3ca2cf0b	0.019874116
6	0x3c6a824a	0.01431329
7	0xbcc96cf8	-0.024588093

conv2Layer.0.weight f4 [1, 4, 1, 1]
0	0xbeeb569a	-0.4596451
1	0xbd6f7dc0	-0.058469534
2	0x3e12c334	0.14332277
3	0xbd64f560	-0.05589807

lstm.weight_ih_l0 f4 [32, 1]
0	0xbf75ebe2	-0.96063054
1	0xbeedf93f	-0.46479222
2	0xbe7b9302	-0.24567798
3	0x402bd210	2.6846962
4	0xc029430e	-2.6447177
5	0x3eabacd7	0.33530304
6	0xbfef770b	-1.8708204
7	0x3fca0ca2	1.5785105
8	0x3fa74050	1.3066502
9	0xc00d06e5	-2.2035458
10	0x401aae06	2.4168715
11	0x3faa3134	1.3296266
12	0x3f020e40	0.50802994
13	0xc0eaf501	-7.3424077
14	0xbf1819fd	-0.59414655
15	0x3eb3138b	0.34975848
16	0x3f141a71	0.57852846
17	0x3fdff98b	1.749803
18	0x3fac6c33	1.347052
19	0xbfaa0011	-1.328127
20	0x3f35a1ff	0.7095031
21	0x3f3108eb	0.6915423
22	0xbe8098ec	-0.2511667
23	0x3f8b1ae7	1.0867585
24	0x3fc70fe2	1.5551722
25	0xbf536492	-0.82575333
26	0x400fdcda	2.2478547
27	0x400ad6c3	2.169358
28	0xbf6e7c1b	-0.9315812
29	0xbf2bc4bc	-0.6709707
30	0xbfc3bf1d	-1.5292698
31	0x3fda0aa1	1.7034494

lstm.weight_hh_l0 f4 [32, 8]
0	0xbf10a23c	-0.5649755
1	0xc02ed7d1	-2.7319224
2	0x3f8959f3	1.0730575
3	0x3e54fe08	0.2080003
4	0xc011f823	-2.28077
5	0x3e7d1b40	0.24717426
6	0xbede7b6e	-0.43453544
7	0x40a8b634	5.2722416
8	0x3ee48d43	0.44639024
9	0x3e7c6e9a	0.24651566
10	0x4039f243	2.9054115
11	0x3f0bd4bf	0.546215
12	0xbf37168e	-0.7151879
13	0xc086410f	-4.1954417
14	0x3fe57228	1.7925463
15	0xc05b7a2a	-3.4293313
16	0x401cf01d	2.4521554
17	0xbf95aee1	-1.1693994
18	0xbf42db27	-0.7611565
19	0xbf95f36d	-1.1714913
20	0xbf83c04d	-1.029306
21	0xbf4029ee	-0.7506398
22	0xbf7c2d15	-0.9850629
23	0x4096df08	4.7147255
24	0x40c719aa	6.221883
25	0xc05c0dda	-3.4383454
26	0xc04a4b42	-3.1608434
27	0xbf7d9913	-0.990617
28	0xbfac46cd	-1.3459107
29	0xbfcc1611	-1.5944234
30	0x4084aca8	4.146076
31	0xbf361d84	-0.7113879
32	0x40b57bd5	5.671366
33	0x3f7a444f	0.9776048
34	0x40a0ca4d	5.024695
35	0x4071e91a	3.7798524
36	0xbf00eed9	-0.5036445
37	0xbf0c3a46	-0.5477642
38	0xc0220f97	-2.5322015
39	0xc008150b	-2.1262844
40	0xc0e1fb78	-7.061947
41	0xbf594c88	-0.848824
42	0x40095682	2.145905
43	0x3ff8f1b5	1.9448763
44	0xbff14bd6	-1.8851268
45	0xbfd42503	-1.6573795
46	0x3e54dc73	0.2078722
47	0x408f323d	4.4748826
48	0xc06a2eba	-3.659102
49	0xc0d110d3	-6.5333037
50	0xc045ab73	-3.0885894
51	0x3f0ae5bb	0.5425679
52	0xc02b8ef3	-2.6806
53	0x3e916c0f	0.28402755
54	0xc009a849	-2.1508963
55	0xbec7d3b0	-0.39028692
56	0x3f0547b0	0.5206251
57	0x404ed01d	3.2314522
58	0xbfff23ed	-1.9932839
59	0xc0aebcbd	-5.4605393
60	0xbede9178	-0.4347036
61	0x3e9d819d	0.3076295
62	0x4029947e	2.6496882
63	0xc013c3a1	-2.3088152
64	0xc05345ac	-3.3011274
65	0x3e8f252e	0.27958053
66	0x406e8dd7	3.7274072
67	0xc0f855a4	-7.760454
68	0xc01a2344	-2.4084024
69	0x411406d8	9.251671
70	0xc05075c9	-3.257189
71	0x3fc44730	1.5334225
72	0xc04d1495	-3.2043812
73	0xbf989b41	-1.192238
74	0xc0110909	-2.2661765
75	0x40423b65	3.0348752
76	0x40639508	3.5559711
77	0x3f4a8428	0.79107904
78	0x40aa244a	5.31693
79	0xbfc2d96a	-1.52226
80	0x3facb252	1.3491919
81	0xc1631950	-14.19368
82	0x3d3815a2	0.044942506
83	0x3f82794e	1.0193269
84	0xbf4e1525	-0.80501014
85	0xbf15858b	-0.58406895
86	0x406a8113	3.664128
87	0x3fdd377c	1.7282557
88	0xc0ae7164	-5.4513416
89	0x41362468	11.383888
90	0x3f753971	0.95790774
91	0x402abbf9	2.667723
92	0x3f6ef10e	0.9333657
93	0x3fce95c6	1.6139457
94	0xbff70696	-1.9298885
95	0x40988d84	4.767275
96	0x3f41ef6f	0.7575597
97	0xbea47216	-0.3211829
98	0xc0038224	-2.0548182
99	0x40c009da	6.0012026
100	0xc08fe364	-4.4965076
101	0xbfea3e9b	-1.8300356
102	0xbfa9d91a	-1.3269379
103	0x40c5dc24	6.1831226
104	0xbfc208ce	-1.5158937
105	0xc05d1276	-3.4542518
106	0x3f9d98c5	1.2312247
107	0x406d156a	3.704432
108	0xc02db81f	-2.7143629
109	0x3e407224	0.18793541
110	0x3fbe4ddb	1.486751
111	0xc0cc130d	-6.3773255
112	0xc00f330e	-2.2374911
113	0x3fbe59cb	1.4871153
114	0x401de5e2	2.467156
115	0xbfab7ee6	-1.3398101
116	0x404f39f5	3.2379124
117	0xc0920d4a	-4.564122
118	0xbef5cce5	-0.48007885
119	0x407706c1	3.8597872
120	0x40a75a60	5.229782
121	0xbfac7e59	-1.3476058
122	0x4056dce4	3.357232
123	0xc046520c	-3.0987577
124	0x41081e19	8.507348
125	0xbf45437c	-0.770561
126	0xbfad5e8d	-1.354448
127	0x3f93c0b6	1.1543186
128	0xbe5b87b3	-0.21438484
129	0x405855ec	3.3802443
130	0x4003d4d1	2.0598643
131	0x3f044e0b	0.51681584
132	0x3f8fbfdc	1.1230426
133	0x3fb240e5	1.3926054
134	0xc0d9a5f9	-6.8015103
135	0x40855ece	4.167823
136	0xbfced4b0	-1.6158657
137	0xbf0c46ea	-0.54795706
138	0xbf63869d	-0.8887728
139	0xbff89606	-1.9420784
140	0xbf9e5406	-1.2369392
141	0x3fd62b00	1.6731873
142	0xbd415f91	-0.04721028
143	0x40a6696d	5.2003694
144	0xbef18cf8	-0.47177863
145	0xbfce0c30	-1.6097469
146	0xbff6d168	-1.9282656
147	0x3ed1ff0b	0.41014895
148	0xbf2948fb	-0.66126984
149	0x3f4bb30f	0.79570097
150	0xbf86b41e	-1.0523717
151	0xc0216f37	-2.522413
152	0x3f3f99ff	0.74844354
153	0x3e463383	0.19355588
154	0x3ebd9313	0.3702627
155	0xbfe6d233	-1.8032898
156	0xc0045771	-2.067837
157	0x3fcb3dd9	1.587825
158	0xbff6351f	-1.9234961
159	0x3f2736d1	0.6531802
160	0x3d0d1cdf	0.03445136
161	0x40653ad0	3.5817146
162	0xbfcd3ef4	-1.6034837
163	0x406da024	3.7128992
164	0xbe8c5156	-0.27405804
165	0xc03dedfb	-2.9676502
166	0x3fdca5e4	1.7238126
167	0xc076c36f	-3.8556783
168	0xc011b9a9	-2.2769568
169	0x400145e5	2.019891
170	0xbe365f82	-0.17809871
171	0xbe08abd3	-0.13346796
172	0x40e9095f	7.282394
173	0x3fd4c30a	1.6622021
174	0x3f1582de	0.5840281
175	0xbf8f483f	-1.1193923
176	0x408a497f	4.3214717
177	0xc107abc8	-8.479439
178	0xbfab2fb1	-1.3373929
179	0x3fbbc975	1.4670855
180	0xbf66706f	-0.9001531
181	0x3f71ff70	0.9453039
182	0xc07b7564	-3.92904
183	0xc0b31dff	-5.5974116
184	0xbf1e05bc	-0.617275
185	0x3dd7d8c2	0.1053939
186	0x3e5c04a8	0.21486151
187	0x3fa626cb	1.2980589
188	0x3f8f5f56	1.1200969
189	0xc0aa2e36	-5.318141
190	0x40f76916	7.731578
191	0xc0133a0a	-2.3004174
192	0x407976d8	3.8978786
193	0x40a8bf8a	5.273381
194	0xbcb15a0e	-0.021649387
195	0x3cdad6ad	0.026713694
196	0xbe95af42	-0.29235274
197	0xbf031dd4	-0.5121739
198	0xbe96f82a	-0.2948621
199	0xbd18e3bf	-0.03732657
200	0x403853fa	2.8801255
201	0xbf9a029a	-1.2032044
202	0xbfbb395c	-1.462688
203	0x3ff39244	1.9029012
204	0xbf32fe40	-0.69919205
205	0xc0ce7255	-6.4514565
206	0x4001df90	2.0292702
207	0xc0cf12a1	-6.471024
208	0x4073c4fa	3.8088975
209	0xc01eaa52	-2.4791455
210	0xbfa17ce8	-1.2616243
211	0xbfc1eaaa	-1.5149739
212	0xbd928810	-0.07154858
213	0xbff38338	-1.902442
214	0x3efa4e2c	0.48887765
215	0xc08f65ee	-4.4811926
216	0x4096bd05	4.7105737
217	0x3fa3672c	1.276586
218	0xc0650db9	-3.5789626
219	0xbe7a695d	-0.24454255
220	0xc04265f5	-3.037473
221	0x40c026f4	6.004755
222	0x40346c7e	2.8191218
223	0x406c7b98	3.6950436
224	0x404657f2	3.0991178
225	0xc0c2f41d	-6.092299
226	0xbfbbd303	-1.4673771
227	0x3e9b10df	0.3028631
228	0xbdc5e907	-0.09663587
229	0xbfaa96b8	-1.3327246
230	0xc0873567	-4.225269
231	0xbf926fef	-1.144041
232	0x40070a35	2.109998
233	0xc01640f1	-2.3477137
234	0xbfaa7abd	-1.3318707
235	0x3f8616c2	1.0475695
236	0xc0877fa7	-4.2343326
237	0xbdb58621	-0.08863474
238	0x3f8d96a9	1.1061603
239	0x3fa6b841	1.302498
240	0xc09739bc	-4.7257977
241	0xc0985a11	-4.7609944
242	0x3ffce21c	1.9756503
243	0xbea5051e	-0.32230467
244	0xbe3b0f06	-0.1826745
245	0x3f7e0788	0.9923024
246	0x3f25170f	0.6448831
247	0x409c7465	4.8892083
248	0xc002f7c8	-2.0463734
249	0x3f0eeeaa	0.5583292
250	0xbf312345	-0.6919444
251	0xbf483f2b	-0.78221387
252	0xc03602ee	-2.8439288
253	0xc0178a42	-2.3678136
254	0x40edae9a	7.4275637
255	0x4074dd2f	3.826

lstm.bias_ih_l0 f4 [32]
0	0xbf5cc3cc	-0.8623626
1	0xbf119d47	-0.5688061
2	0xbedc63a5	-0.43044773
3	0xbfb486f4	-1.4103684
4	0x3f857683	1.0426792
5	0x3d814b42	0.063131824
6	0xbf29da71	-0.6634894
7	0xc0154b0e	-2.332706
8	0x3fc64214	1.5488915
9	0xbf3327cf	-0.6998262
10	0x3ff1bc16	1.8885524
11	0x400889f2	2.1334195
12	0x3fa183b5	1.2618319
13	0x3f2b5078	0.6691966
14	0x3fc16e29	1.5111743
15	0x3c939c7c	0.018018954
16	0xbf81d626	-1.0143478
17	0xbdf30858	-0.11866826
18	0xbf54e3de	-0.831602
19	0x3fd9ff08	1.7030954
20	0xbec7d50a	-0.39029723
21	0xbe1179e5	-0.14206655
22	0x3f3c0b7d	0.7345503
23	0xbf9465bf	-1.159355
24	0xbef064fd	-0.46952048
25	0xbf1018ed	-0.56288034
26	0x3e59b96e	0.21262142
27	0xbf257ec9	-0.64646584
28	0x3f60f73c	0.8787725
29	0xbe37c81a	-0.17947426
30	0x3ec0deb3	0.37669906
31	0xc045d80b	-3.0913112

lstm.bias_hh_l0 f4 [32]
0	0xbef4f0df	-0.4784002
1	0xbe8a349c	-0.26993263
2	0xbef11756	-0.47088116
3	0xbfebf298	-1.8433409
4	0x3fb5ceda	1.4203751
5	0xbe3e0167	-0.18555222
6	0xbea694dd	-0.3253545
7	0xc01f0207	-2.4844987
8	0x3fa1536d	1.2603585
9	0xbe51104b	-0.20416372
10	0x3fda36a0	1.704792
11	0x40098cde	2.1492229
12	0x3fb5a1e9	1.4190036
13	0x3f7d6cfe	0.98994434
14	0x3fb47943	1.4099506
15	0x3eca6463	0.39529714
16	0xbf9ce115	-1.225619
17	0xbf0f04ae	-0.55866516
18	0xbf82583f	-1.018318
19	0x3f8a200d	1.0791031
20	0xbe591c38	-0.21202171
21	0xbeab9588	-0.3351252
22	0x3f91d200	1.1392212
23	0xbf0e73a5	-0.5564521
24	0xbf53a828	-0.8267846
25	0xbf090be4	-0.5353377
26	0xbdb6f89b	-0.089341365
27	0xbf40bc97	-0.75287765
28	0x3f57caa0	0.84293556
29	0x3da758cd	0.08171234
30	0xbc4377eb	-0.011930446
31	0xc0348d59	-2.8211272

linearFC1.0.weight f4 [10, 8]
0	0xbdb0e2f5	-0.086370386
1	0xbd8556fe	-0.06510733
2	0xbbccabd8	-0.0062460713
3	0x3c1199eb	0.008886795
4	0xbcd6aee4	-0.026206441
5	0xbd331ed3	-0.04373057
6	0x3d1c2c79	0.03812835
7	0x3d56419f	0.052308675
8	0x3f4277ab	0.7596385
9	0x3f60dfa7	0.87841266
10	0x400cb68c	2.1986418
11	0xbe8e08df	-0.27741143
12	0xbf625f8a	-0.8842703
13	0xbcad23d3	-0.021135246
14	0xbffaa14e	-1.9580476
15	0x402a50f0	2.66119
16	0x3cf1a8b1	0.029499384
17	0x3e8ca45d	0.2746915
18	0xbd7b693f	-0.061379667
19	0x3d31401f	0.04327404
20	0xbdfcd97a	-0.12346168
21	0x3e09252d	0.13393088
22	0xbde7d28a	-0.11319454
23	0xbe19ff83	-0.15038876
24	0x3c07d296	0.008289954
25	0xbe95a7f4	-0.292297
26	0x3d908274	0.07056132
27	0x3d4f7b36	0.050654612
28	0x3e09a527	0.13441907
29	0x3dec3f52	0.11535515
30	0x3dde50e8	0.108552754
31	0x3ddf826f	0.1091355
32	0x3bb4e8e2	0.005520926
33	0xbe8dbcce	-0.2768311
34	0x3d09fbd7	0.03368744
35	0xbccab7d1	-0.024745854
36	0x3d99f471	0.075173266
37	0xbdc337ac	-0.09532103
38	0x3c029fc4	0.007972661
39	0x3a67d5f6	0.00088438333
40	0xbcb5f132	-0.022209737
41	0xbccd3854	-0.025051273
42	0x3d2501cb	0.040284913
43	0x3d999ec8	0.07500988
44	0x3d1b8737	0.037970748
45	0x3e484c8c	0.1956045
46	0x3d932921	0.07185579
47	0xbdcf722e	-0.101292
48	0xbc75b7f0	-0.014997467
49	0xbe9a1f9c	-0.3010224
50	0x3d141ff7	0.036163297
51	0xbd5f3f5b	-0.05450378
52	0x3db92f69	0.09042246
53	0xbe4a46fa	-0.19753638
54	0x3cd7bfcf	0.026336579
55	0x3e2345cb	0.15944593
56	0x3d66ffef	0.05639642
57	0x3d73f47b	0.059559327
58	0x3c62f211	0.013851658
59	0x3d24c5d8	0.04022774
60	0x3c7c71cc	0.015407991
61	0x3e12e6dc	0.14345878
62	0xbcd57b6f	-0.026059834
63	0xbe21fff7	-0.15820299
64	0xbd0a1856	-0.033714615
65	0x3ea2b586	0.31779116
66	0xbd3546d3	-0.044256996
67	0xbb68a2ef	-0.0035497507
68	0xbdc4eddb	-0.0961568
69	0x3c82c239	0.015961753
70	0xbb56356d	-0.0032685653
71	0x3c37da48	0.011221476
72	0x3dcecfb7	0.10098212
73	0x3e0cef4e	0.13763162
74	0x3bbd2d68	0.005773235
75	0xbc974d30	-0.018469423
76	0x3c8b293e	0.01698744
77	0x3dec3f10	0.11535466
78	0x3cd17b86	0.025571596
79	0xbd2d8cdd	-0.042370666

linearFC1.0.bias f4 [10]
0	0xbae18aa6	-0.0017207458
1	0xbdb188cb	-0.08668669
2	0x3cd94d63	0.026526159
3	0xbd23f23e	-0.040025942
4	0xbc4f0bdb	-0.012637104
5	0xbcc05836	-0.023479562
6	0xbc399185	-0.0113261985
7	0xbb0bbd80	-0.0021322668
8	0x3c8f999d	0.017529303
9	0x39db733a	0.00041856786

linearFC1.1.weight f4 [1, 10]
0	0x3be54ec9	0.0069979173
1	0x3f619f9f	0.8813419
2	0xbc4e3c0b	-0.012587558
3	0xbb9aa9be	-0.004719942
4	0x3b03f1ef	0.0020133217
5	0xbbf5d038	-0.0075016282
6	0x3c396c0a	0.011317262
7	0xbc211489	-0.009831556
8	0x3b9ef9c5	0.004851552
9	0xbc28b6f3	-0.010297525

historyFC.0.weight f4 [10, 5]
0	0x3f05aa58	0.5221305
1	0x3f61c895	0.8819669
2	0x3f52e59f	0.82381624
3	0x3ee76ec4	0.45201695
4	0x3f4b1e65	0.79343253
5	0x3bf51556	0.00747935
6	0xbd3f88d7	-0.04676136
7	0x3ca9698e	0.020680215
8	0x3cde267a	0.027117956
9	0xbc160a32	-0.009157704
10	0x3afb6f02	0.0019182863
11	0x3c81d071	0.015846463
12	0xbc89b691	-0.016810687
13	0x3d076d94	0.033063486
14	0xbcbfeddf	-0.023428855
15	0xbcebecf1	-0.028799506
16	0x3c4c3954	0.01246484
17	0x3b791034	0.0038004043
18	0xbac6c378	-0.0015164455
19	0x3c4b12f4	0.0123946555
20	0xbc001381	-0.00781715
21	0xbc631e45	-0.013862197
22	0xbca371ce	-0.019951727
23	0x3d76765f	0.06017148
24	0xbc6df9b1	-0.014524863
25	0xbb1ab716	-0.0023607663
26	0x3c7b74f5	0.015347709
27	0xbcabd351	-0.020974787
28	0x3d20966d	0.039205957
29	0xbcabccc7	-0.020971669
30	0x3f852736	1.0402591
31	0x3eb662f9	0.35622385
32	0x3ee12e65	0.4398071
33	0x3f8fc4df	1.1231955
34	0x3f61bafb	0.88175935
35	0xbbad69f5	-0.005292172
36	0xbbd0e311	-0.0063747247
37	0x3c5a2e92	0.013316767
38	0xbd02e78d	-0.031959105
39	0x3cb2e2fe	0.021836754
40	0xbcb277da	-0.021785665
41	0xbc71e798	-0.014764689
42	0xbca25d75	-0.019819954
43	0x3da538a0	0.08067441
44	0xbcbc2209	-0.022965448
45	0x3cd1cc5f	0.025610147
46	0xbc0c593b	-0.008566196
47	0xbc24a287	-0.010048515
48	0x3c2eafe0	0.010662049
49	0xbc71798d	-0.014738453

historyFC.0.bias f4 [10]
0	0xc0001a29	-2.0015967
1	0x3a10b75e	0.0005520488
2	0xbbae6ef9	-0.0053232876
3	0x3b063c31	0.0020482654
4	0x3abef3b6	0.0014568481
5	0xbb92093b	-0.0044566668
6	0xbfe1160d	-1.7584854
7	0x3b874e43	0.0041292026
8	0x3ba69088	0.0050831474
9	0xbaec8911	-0.001804622

historyFC.1.weight f4 [1, 10]
0	0x3f315c59	0.69281536
1	0xbb010eac	-0.0019692583
2	0xbaeebb97	-0.0018213865
3	0xb9f431a4	-0.00046576292
4	0xbb04cfa7	-0.0020265372
5	0xbae9303c	-0.0017790864
6	0x3f620360	0.882864
7	0x3ad2d82a	0.001608615
8	0xbb73457b	-0.003712027
9	0x38a68d16	7.941776e-05

operateFC.0.weight f4 [2, 2]
0	0x3ed0868e	0.40727657
1	0x3eb1bcb1	0.34714273
2	0x3bc3d83e	0.005976706
3	0xbc049a8e	-0.008093489

operateFC.0.bias f4 [2]
0	0x3b832baa	0.004003008
1	0x3aa32d2d	0.0012449377

operateFC.1.weight f4 [1, 2]
0	0x3e650a3a	0.22367182
1	0xb93ad7b2	-0.00017818695
